…
4 _,axs = plt.subplots(nrows=nrows,ncols=ncols) axs = axs.flatten() for img, ax, label in zip(imgs[start_index:end_index,:,:,0],axs, labels[start_index:end_index]): ax.set_title(from_one_hot_to_digit(label)) ax.imshow(img) plt.show() examine_by_indices(X,Y,0,20) . Build Model . model = prep_from_scratch(num_classes,X[0,:,:,0].shape, [128, 64], [0.5, 0.5]) #prep_nn(5) model.summary() . Model: &#34;sequential&#34; _________________________________________________________________ Layer (type) Output Shape Param # ================================================================= flatten (Flatten) (None, 784) 0 _________________________________________________________________ dense (Dense) (None, 128) 100480 _________________________________________________________________ dropout (Dropout) (None, 128) 0 _________________________________________________________________ dense_1 (Dense) (None, 64) 8256 _________________________________________________________________ dropout_1 (Dropout) (None, 64) 0 _________________________________________________________________ dense_2 (Dense) (None, 10) 650 ================================================================= Total params: 109,386 Trainable params: 109,386 Non-trainable params: 0 _________________________________________________________________ . history = model.fit(np.stack(X,axis=0),np.stack(Y,axis=0), batch_size=20, epochs=20, validation_split = 0.2,verbose=1) # print(categorical_y.unique()) . Epoch 1/20 1680/1680 [==================
…
